…
    --> NumpyDataset 'train-resnet50-res5c_relu-r256-c256-l2norm.npy' (29000 samples)


Initializing dataset for 'src'...
0sents [00:00, ?sents/s]8615sents [00:00, 86120.72sents/s]17848sents [00:00, 89220.30sents/s]27081sents [00:00, 77014.68sents/s]29000sents [00:00, 79628.48sents/s]
Initializing dataset for 'image'...
Skipping 'trg' as target
MultimodalDataset - (2 source(s) / 0 target(s))
  Sampler type: bucket, bucket_by: src
  Sources:
    --> TextDataset 'train.lc.norm.tok.en' (29000 sentences)
    --> NumpyDataset 'train-resnet50-res5c_relu-r256-c256-l2norm.npy' (29000 samples)


SIMRL(
  (critic_loss): MSELoss()
  (emb): Embedding(18050, 200, padding_idx=0)
  (dec_duel): MyConditionalDecoder(
    (emb): Embedding(1, 841, padding_idx=0)
    (dec0): GRUCell(841, 320)
    (do_out): Dropout(p=0.5, inplace=False)
    (hid2out): FF(in_features=320, out_features=841, activ=tanh, bias=True, bias_zero=True)
    (out2prob): FF(in_features=841, out_features=1, activ=linear, bias=True, bias_zero=True)
    (lin_class): Linear(in_features=1, out_features=1, bias=False)
    (nll_loss): NLLLoss()
  )
  (dec): MyConditionalDecoder(
    (emb): Embedding(2, 841, padding_idx=0)
    (dec0): GRUCell(841, 320)
    (do_out): Dropout(p=0.5, inplace=False)
    (hid2out): FF(in_features=320, out_features=841, activ=tanh, bias=True, bias_zero=True)
    (out2prob): FF(in_features=841, out_features=2, activ=linear, bias=True, bias_zero=True)
    (lin_class): Linear(in_features=1, out_features=1, bias=False)
    (nll_loss): NLLLoss()
  )
  (model_trans): SimultaneousNMT(
    (encoders): ModuleDict(
      (image): VisualFeaturesEncoder(
        (output): Sequential(
          (0): FF(in_features=2048, out_features=320, activ=tanh, bias=True, bias_zero=True)
          (1): LayerNorm((320,), eps=1e-05, elementwise_affine=True)
          (2): Dropout(p=0.5, inplace=False)
        )
      )
      (src): TextEncoder(
        (do_emb): Dropout(p=0.4, inplace=False)
        (emb): Embedding(9797, 200, padding_idx=0)
        (enc): GRU(200, 320, num_layers=2)
        (output): Sequential(
          (0): LayerNorm((320,), eps=1e-05, elementwise_affine=True)
          (1): Dropout(p=0.5, inplace=False)
        )
      )
    )
    (dec): SimultaneousConditionalDecoder(
      (emb): Embedding(18050, 200, padding_idx=0)
      (att): ModuleDict(
        (image): MLPAttention(
          (hid2ctx): Linear(in_features=320, out_features=320, bias=False)
          (ctx2ctx): Linear(in_features=320, out_features=320, bias=False)
          (ctx2hid): Linear(in_features=320, out_features=320, bias=False)
          (mlp): Linear(in_features=320, out_features=1, bias=False)
        )
        (src): MLPAttention(
          (hid2ctx): Linear(in_features=320, out_features=320, bias=False)
          (ctx2ctx): Linear(in_features=320, out_features=320, bias=False)
          (ctx2hid): Linear(in_features=320, out_features=320, bias=False)
          (mlp): Linear(in_features=320, out_features=1, bias=False)
        )
      )
      (fusion): Sequential(
        (0): Fusion(type=sum, adaptor=<function Fusion.__init__.<locals>.<lambda> at 0x7f9c718ed950>, activ=None)
      )
      (dec0): GRUCell(200, 320)
      (dec1): GRUCell(320, 320)
      (do_out): Dropout(p=0.5, inplace=False)
      (hid2out): FF(in_features=840, out_features=200, activ=tanh, bias=True, bias_zero=True)
…
