…
0sents [00:00, ?sents/s]9375sents [00:00, 63117.85sents/s]25454sents [00:00, 102416.00sents/s]29000sents [00:00, 105798.66sents/s]
Skipping 'trg' as target
MultimodalDataset - (1 source(s) / 0 target(s))
  Sampler type: bucket, bucket_by: src
  Sources:
    --> TextDataset 'train.lc.norm.tok.en' (29000 sentences)

Initializing dataset for 'src'...
0sents [00:00, ?sents/s]12406sents [00:00, 124026.70sents/s]26024sents [00:00, 130098.10sents/s]29000sents [00:00, 133195.38sents/s]
Skipping 'trg' as target
MultimodalDataset - (1 source(s) / 0 target(s))
  Sampler type: bucket, bucket_by: src
  Sources:
    --> TextDataset 'train.lc.norm.tok.en' (29000 sentences)

SIMRLImageRL(
  (critic_loss): MSELoss()
  (emb): Embedding(11048, 200, padding_idx=0)
  (dec_duel): MyConditionalDecoder(
    (emb): Embedding(1, 841, padding_idx=0)
    (dec0): GRUCell(841, 320)
    (do_out): Dropout(p=0.5, inplace=False)
    (hid2out): FF(in_features=320, out_features=841, activ=tanh, bias=True, bias_zero=True)
    (out2prob): FF(in_features=841, out_features=1, activ=linear, bias=True, bias_zero=True)
    (lin_class): Linear(in_features=1, out_features=1, bias=False)
    (nll_loss): NLLLoss()
  )
  (dec): MyConditionalDecoder(
    (emb): Embedding(2, 841, padding_idx=0)
    (dec0): GRUCell(841, 320)
    (do_out): Dropout(p=0.5, inplace=False)
    (hid2out): FF(in_features=320, out_features=841, activ=tanh, bias=True, bias_zero=True)
    (out2prob): FF(in_features=841, out_features=2, activ=linear, bias=True, bias_zero=True)
    (lin_class): Linear(in_features=1, out_features=1, bias=False)
    (nll_loss): NLLLoss()
  )
  (encoders): ModuleDict(
    (image): VisualFeaturesEncoder(
      (output): Sequential(
        (0): FF(in_features=2048, out_features=320, activ=tanh, bias=True, bias_zero=True)
        (1): Dropout(p=0.5, inplace=False)
      )
    )
  )
  (imgctx2hid): FF(in_features=20480, out_features=320, activ=linear, bias=True, bias_zero=True)
  (model_trans): SimultaneousNMT(
    (encoders): ModuleDict(
      (src): TextEncoder(
        (do_emb): Dropout(p=0.4, inplace=False)
        (emb): Embedding(9797, 200, padding_idx=0)
        (enc): GRU(200, 320, num_layers=2)
        (output): Sequential(
          (0): Dropout(p=0.5, inplace=False)
        )
      )
    )
    (dec): SimultaneousConditionalDecoder(
      (emb): Embedding(11048, 200, padding_idx=0)
      (att): ModuleDict(
        (src): MLPAttention(
          (hid2ctx): Linear(in_features=320, out_features=320, bias=False)
          (ctx2ctx): Linear(in_features=320, out_features=320, bias=False)
          (ctx2hid): Linear(in_features=320, out_features=320, bias=False)
          (mlp): Linear(in_features=320, out_features=1, bias=False)
        )
      )
      (dec0): GRUCell(200, 320)
      (dec1): GRUCell(320, 320)
      (do_out): Dropout(p=0.5, inplace=False)
      (hid2out): FF(in_features=840, out_features=200, activ=tanh, bias=True, bias_zero=True)
      (out2prob): FF(in_features=200, out_features=11048, activ=linear, bias=True, bias_zero=True)
      (nll_loss): NLLLoss()
    )
  )
…
