…
-- source -> None
-- output -> wait2_multimodal_decoding_results
-- func -> vwk
-- delta -> 
-- n_init_tokens -> 1,2,3,5,7
-- criteria -> 
-- model -> ../experiments/simultaneouswaitknmt-rc85df.best.bleu.ckpt
STranslator: setting batch_size=1 for 'vwk' decoding
SimultaneousWaitKNMT(
  (encoders): ModuleDict(
    (image): VisualFeaturesEncoder(
      (output): Sequential(
        (0): FF(in_features=2048, out_features=320, activ=tanh, bias=True, bias_zero=True)
        (1): Dropout(p=0.5, inplace=False)
      )
    )
    (src): TextEncoder(
      (do_emb): Dropout(p=0.4, inplace=False)
      (emb): Embedding(9797, 200, padding_idx=0)
      (enc): GRU(200, 320, num_layers=2)
      (output): Sequential(
        (0): Dropout(p=0.5, inplace=False)
      )
    )
  )
  (dec): SimultaneousConditionalDecoder(
    (emb): Embedding(7875, 200, padding_idx=0)
    (att): ModuleDict(
      (image): MLPAttention(
        (hid2ctx): Linear(in_features=320, out_features=320, bias=False)
        (ctx2ctx): Linear(in_features=320, out_features=320, bias=False)
        (ctx2hid): Linear(in_features=320, out_features=320, bias=False)
        (mlp): Linear(in_features=320, out_features=1, bias=False)
      )
      (src): MLPAttention(
        (hid2ctx): Linear(in_features=320, out_features=320, bias=False)
        (ctx2ctx): Linear(in_features=320, out_features=320, bias=False)
        (ctx2hid): Linear(in_features=320, out_features=320, bias=False)
        (mlp): Linear(in_features=320, out_features=1, bias=False)
      )
    )
    (fusion): Sequential(
      (0): Fusion(type=sum, adaptor=<function Fusion.__init__.<locals>.<lambda> at 0x7fc8a93e7d40>, activ=None)
    )
    (dec0): GRUCell(200, 320)
    (dec1): GRUCell(320, 320)
    (do_out): Dropout(p=0.5, inplace=False)
    (hid2out): FF(in_features=840, out_features=200, activ=tanh, bias=True, bias_zero=True)
    (out2prob): FF(in_features=200, out_features=7875, activ=linear, bias=True, bias_zero=True)
…
Ignoring batch_size 1 for simultaneous greedy search
Starting translation for 'test_2016_flickr'
  0%|                                     | 0/1000 [00:00<?, ?batch/s]  0%|                                     | 0/1000 [00:00<?, ?batch/s]
decoder attrs
{'training': False, '_parameters': OrderedDict(), '_buffers': OrderedDict(), '_backward_hooks': OrderedDict(), '_forward_hooks': OrderedDict(), '_forward_pre_hooks': OrderedDict(), '_state_dict_hooks': OrderedDict(), '_load_state_dict_pre_hooks': OrderedDict(), '_modules': OrderedDict([('emb', Embedding(7875, 200, padding_idx=0)), ('att', ModuleDict(
  (image): MLPAttention(
    (hid2ctx): Linear(in_features=320, out_features=320, bias=False)
    (ctx2ctx): Linear(in_features=320, out_features=320, bias=False)
    (ctx2hid): Linear(in_features=320, out_features=320, bias=False)
    (mlp): Linear(in_features=320, out_features=1, bias=False)
  )
  (src): MLPAttention(
    (hid2ctx): Linear(in_features=320, out_features=320, bias=False)
    (ctx2ctx): Linear(in_features=320, out_features=320, bias=False)
    (ctx2hid): Linear(in_features=320, out_features=320, bias=False)
    (mlp): Linear(in_features=320, out_features=1, bias=False)
  )
)), ('fusion', Sequential(
  (0): Fusion(type=sum, adaptor=<function Fusion.__init__.<locals>.<lambda> at 0x7fc8a93e7d40>, activ=None)
)), ('dec0', GRUCell(200, 320)), ('dec1', GRUCell(320, 320)), ('do_out', Dropout(p=0.5, inplace=False)), ('hid2out', FF(in_features=840, out_features=200, activ=tanh, bias=True, bias_zero=True)), ('out2prob', FF(in_features=200, out_features=7875, activ=linear, bias=True, bias_zero=True)), ('nll_loss', NLLLoss())]), 'rnn_type': 'GRU', 'input_size': 200, 'hidden_size': 320, 'n_vocab': 7875, 'dec_inp_activ_fn': <function get_activation_fn.<locals>.<lambda> at 0x7fc8a9434050>, 'out_merge_fn': <function SimultaneousConditionalDecoder.__init__.<locals>.<lambda> at 0x7fc8a93ec050>}
attention layers
ModuleDict(
  (image): MLPAttention(
    (hid2ctx): Linear(in_features=320, out_features=320, bias=False)
    (ctx2ctx): Linear(in_features=320, out_features=320, bias=False)
    (ctx2hid): Linear(in_features=320, out_features=320, bias=False)
    (mlp): Linear(in_features=320, out_features=1, bias=False)
  )
  (src): MLPAttention(
    (hid2ctx): Linear(in_features=320, out_features=320, bias=False)
    (ctx2ctx): Linear(in_features=320, out_features=320, bias=False)
    (ctx2hid): Linear(in_features=320, out_features=320, bias=False)
    (mlp): Linear(in_features=320, out_features=1, bias=False)
  )
)
{'training': False, '_parameters': OrderedDict(), '_buffers': OrderedDict(), '_backward_hooks': OrderedDict(), '_forward_hooks': OrderedDict(), '_forward_pre_hooks': OrderedDict(), '_state_dict_hooks': OrderedDict(), '_load_state_dict_pre_hooks': OrderedDict(), '_modules': OrderedDict([('image', MLPAttention(
  (hid2ctx): Linear(in_features=320, out_features=320, bias=False)
  (ctx2ctx): Linear(in_features=320, out_features=320, bias=False)
  (ctx2hid): Linear(in_features=320, out_features=320, bias=False)
  (mlp): Linear(in_features=320, out_features=1, bias=False)
)), ('src', MLPAttention(
  (hid2ctx): Linear(in_features=320, out_features=320, bias=False)
  (ctx2ctx): Linear(in_features=320, out_features=320, bias=False)
  (ctx2hid): Linear(in_features=320, out_features=320, bias=False)
  (mlp): Linear(in_features=320, out_features=1, bias=False)
))])}
Traceback (most recent call last):
  File "/vol/bitbucket/al4616/miniconda3/envs/simnmt/bin/nmtpy", line 7, in <module>
    exec(compile(f.read(), __file__, 'exec'))
  File "/vol/bitbucket/al4616/simmt/bin/nmtpy", line 100, in <module>
    stranslator()
  File "/vol/bitbucket/al4616/simmt/nmtpytorch/stranslator.py", line 129, in __call__
    self.translate(input_)
…
