…
-- func -> wk
-- delta -> 
-- n_init_tokens -> 1,2,3,5,7
-- criteria -> 
-- model -> ../simultaneousMMT/experiments/bpe_models/en-en/en-en-multimodal-w2bpe-wait1/simultaneouswaitknmt-r2b64a-val040.best.bleu_93.820.ckpt
STranslator: setting batch_size=1 for 'wk' decoding
SimultaneousWaitKNMT(
  (encoders): ModuleDict(
    (image): VisualFeaturesEncoder(
      (output): Sequential(
        (0): FF(in_features=2048, out_features=320, activ=tanh, bias=True, bias_zero=True)
        (1): Dropout(p=0.5, inplace=False)
      )
    )
    (src): TextEncoder(
      (do_emb): Dropout(p=0.4, inplace=False)
      (emb): Embedding(9797, 200, padding_idx=0)
      (enc): GRU(200, 320, num_layers=2)
      (output): Sequential(
        (0): Dropout(p=0.5, inplace=False)
      )
    )
  )
  (dec): SimultaneousConditionalDecoder(
    (emb): Embedding(4798, 200, padding_idx=0)
    (att): ModuleDict(
      (image): MLPAttention(
        (hid2ctx): Linear(in_features=320, out_features=320, bias=False)
        (ctx2ctx): Linear(in_features=320, out_features=320, bias=False)
        (ctx2hid): Linear(in_features=320, out_features=320, bias=False)
        (mlp): Linear(in_features=320, out_features=1, bias=False)
      )
      (src): MLPAttention(
        (hid2ctx): Linear(in_features=320, out_features=320, bias=False)
        (ctx2ctx): Linear(in_features=320, out_features=320, bias=False)
        (ctx2hid): Linear(in_features=320, out_features=320, bias=False)
        (mlp): Linear(in_features=320, out_features=1, bias=False)
      )
    )
    (fusion): Sequential(
      (0): Fusion(type=sum, adaptor=<function Fusion.__init__.<locals>.<lambda> at 0x7f0f3310d290>, activ=None)
    )
    (dec0): GRUCell(200, 320)
    (dec1): GRUCell(320, 320)
    (do_out): Dropout(p=0.5, inplace=False)
    (hid2out): FF(in_features=840, out_features=200, activ=tanh, bias=True, bias_zero=True)
    (out2prob): FF(in_features=200, out_features=4798, activ=linear, bias=True, bias_zero=True)
…
