…
MultimodalDataset - (2 source(s) / 0 target(s))
  Sampler type: bucket, bucket_by: src
  Sources:
    --> TextDataset 'val.lc.norm.tok.en' (1014 sentences)
    --> NumpyDataset 'val-resnet50-res5c_relu-r256-c256-l2norm.npy' (1014 samples)


Ignoring batch_size 32 for simultaneous greedy search
SimultaneousWaitKNMT(
  (encoders): ModuleDict(
    (image): VisualFeaturesEncoder(
      (output): Sequential(
        (0): FF(in_features=2048, out_features=320, activ=tanh, bias=True, bias_zero=True)
        (1): Dropout(p=0.5, inplace=False)
      )
    )
    (src): TextEncoder(
      (do_emb): Dropout(p=0.4, inplace=False)
      (emb): Embedding(9797, 200, padding_idx=0)
      (enc): GRU(200, 320, num_layers=2)
      (output): Sequential(
        (0): Dropout(p=0.5, inplace=False)
      )
    )
  )
  (dec): SimultaneousConditionalDecoder(
    (emb): Embedding(9797, 200, padding_idx=0)
    (att): ModuleDict(
      (image): MLPAttention(
        (hid2ctx): Linear(in_features=320, out_features=320, bias=False)
        (ctx2ctx): Linear(in_features=320, out_features=320, bias=False)
        (ctx2hid): Linear(in_features=320, out_features=320, bias=False)
        (mlp): Linear(in_features=320, out_features=1, bias=False)
      )
      (src): MLPAttention(
        (hid2ctx): Linear(in_features=320, out_features=320, bias=False)
        (ctx2ctx): Linear(in_features=320, out_features=320, bias=False)
        (ctx2hid): Linear(in_features=320, out_features=320, bias=False)
        (mlp): Linear(in_features=320, out_features=1, bias=False)
      )
    )
    (fusion): Sequential(
      (0): Fusion(type=sum, adaptor=<function Fusion.__init__.<locals>.<lambda> at 0x7f2309f5a830>, activ=None)
    )
    (dec0): GRUCell(200, 320)
    (dec1): GRUCell(320, 320)
    (do_out): Dropout(p=0.5, inplace=False)
    (hid2out): FF(in_features=840, out_features=200, activ=tanh, bias=True, bias_zero=True)
    (out2prob): FF(in_features=200, out_features=9797, activ=linear, bias=True, bias_zero=True)
…
